model_final_day.pth (torch, 20760 bytes, 5 tensors)

lstm.weight_ih_l0 f4 [128, 1]
000000 74 96 b6 ba 4d dd 08 bd d2 45 85 bd b4 00 61 ba
       -0.0013930337 -0.033414174 -0.06507458 -0.00085831736
000010 b4 75 51 bd e0 ac e7 bb e6 e7 29 bd e7 39 04 bd
       -0.05113764 -0.007070169 -0.04148092 -0.032281782
000020 b3 ca aa bc 71 3a c9 bc ef f1 03 bd 44 a9 cc 37
       -0.020848608 -0.024564 -0.032213148 2.4397516e-05
000030 58 a7 31 bd f7 b1 2a bd 0f b1 7e bc 61 a0 80 bd
       -0.043372482 -0.041673627 -0.015545144 -0.0628059
000040 f3 2f 4d bd e5 a0 ff bc 1e 29 3a bc 37 7c 79 bc
       -0.050094556 -0.03120465 -0.011362342 -0.015227369
000050 fb 9c a2 bc 33 a8 c5 bc b2 83 6a bc 86 fe 48 bd
       -0.019850245 -0.024128055 -0.014313625 -0.049070857
000060 21 05 cb bc 1a 21 0d be 1d f8 8c ba 3b bb cf b9
       -0.02478272 -0.13782158 -0.0010755096 -0.00039621614
000070 13 8b 6c bd b8 c8 40 bd 2a 6e 1c bc cb c5 6d bd
       -0.05774982 -0.04706642 -0.0095477495 -0.05804996
000080 94 78 98 ba 89 52 03 bd 68 e1 79 bd ec fb 0a ba
       -0.0011632615 -0.032061134 -0.06100598 -0.00053018215
000090 4d db 3f bd 1d 39 bf bb 52 88 1c bd 93 eb e0 bc
       -0.04684 -0.005835666 -0.038215943 -0.02745608
0000a0 ea b5 99 bc b6 3b b0 bc a3 50 e8 bc ae 1c ad 38
       -0.018763501 -0.021512847 -0.028358763 8.254625e-05
0000b0 0f 3e 2f bd a4 ba 17 bd d5 8a 58 bc 78 f9 86 bd
       -0.042783793 -0.03704323 -0.013216694 -0.06590551
0000c0 3a 66 3e bd 77 63 e5 bc 19 32 21 bc 48 dd 4e bc
       -0.04648421 -0.02800153 -0.009838604 -0.012626
0000d0 2e 3c 98 bc 45 0b a6 bc 32 7a 50 bc 1c 6f 67 bd
       -0.018583383 -0.020269046 -0.012724446 -0.056502447
0000e0 44 b3 af bc b2 c1 1d be 34 9e 5c ba b4 de 9e b9
       -0.021447785 -0.1540592 -0.0008415908 -0.00030302035
0000f0 09 64 5e bd 58 d4 3b bd 6f 46 07 bc 09 15 5b bd
       -0.05429462 -0.045856804 -0.008256539 -0.053486858
000100 76 f3 01 bc d3 e3 61 bd 6e dd 97 be d1 ef 15 3b
       -0.007931581 -0.05514891 -0.29661125 0.0022878537
000110 ad ae 11 3e 1a a3 96 3d f4 22 08 3e c3 fa 17 be
       0.1422679 0.07355328 0.13294584 -0.14841752
000120 eb 68 dd 3d fd 8f 9d bd a3 5a 4b 3e 44 44 41 bd
       0.10811027 -0.07693479 0.19858794 -0.047184244
000130 f4 4a 40 be b7 cd 3c 3e 05 64 03 3e 2d bc 45 be
       -0.18778592 0.18437849 0.12831123 -0.19310065
000140 f0 84 3b 3e 6b a6 1d 3d 72 aa b6 3b 4b 5c e9 bd
       0.1831243 0.038488787 0.005574518 -0.113945566
000150 55 40 43 bd 51 c1 43 3e 5c 0e 0d 3d 57 3f cd bd
       -0.047668774 0.19116713 0.034437522 -0.10021847
000160 43 f9 18 3e a0 32 ea 3e 4f 9d 65 3d 41 22 1e 3d
       0.14938836 0.4574175 0.056058224 0.038606886
000170 d8 bd 8b 3e 27 c7 ed bd 39 f4 5b bd 1b c0 7b be
       0.27293277 -0.11610251 -0.053699706 -0.24585001
000180 40 82 b8 ba 39 d9 1a bd d4 1a a4 bd 1e c4 5f ba
       -0.0014076903 -0.037804816 -0.080129296 -0.00085359986
000190 4a cc 9e bd d7 1c ef bb 49 fc 41 bd f6 3e 1c bd
       -0.07753809 -0.007297139 -0.04735974 -0.03814598
0001a0 85 82 c1 bc fc 0d d8 bc 6d 1f 10 bd c8 16 08 39
       -0.023621807 -0.026373856 -0.03518622 0.00012978457
0001b0 d6 d7 64 bd 94 0b 3e bd 24 96 86 bc ae df ae bd
       -0.0558699 -0.04639776 -0.016429015 -0.08538757
0001c0 9a 3a 68 bd a0 52 0e bd c9 ed 45 bc 93 09 81 bc
       -0.05669651 -0.034746766 -0.012080618 -0.015751636
0001d0 93 d4 c9 bc c7 a9 ce bc 60 6b 7b bc 92 fb 84 bd
       -0.024637496 -0.02522744 -0.015345424 -0.06493296
0001e0 48 63 d7 bc fa e0 36 be 04 e3 8e ba 4d e5 ce b9
       -0.026292458 -0.17859259 -0.0010901396 -0.00039462224
0001f0 a1 46 87 bd b9 f0 4e bd 2e b5 26 bc 3a 43 88 bd
       -0.06605268 -0.05052254 -0.010175033 -0.066534474

lstm.weight_hh_l0 f4 [128, 32]
000000 10 34 da 37 85 87 2f 39 38 0e 90 39 24 52 7e b7
       2.6011869e-05 0.00016739785 0.00027476414 -1.5158705e-05
000010 8f c9 75 b9 aa 58 a9 b8 dd 82 37 b9 a4 80 57 39
       -0.00023440107 -8.075063e-05 -0.0001750099 0.0002055192
000020 dd b7 24 b9 ca 34 f7 37 1f 93 3a b9 ac 5f 3b 37
       -0.00015708753 2.9469276e-05 -0.00017793149 1.1168344e-05
000030 6d 02 7a 39 99 ef 63 b9 6e 45 08 b9 32 1c 8f 39
       0.00023842762 -0.00021737664 -0.00012995835 0.00027296093
000040 10 a1 86 37 3f be ed b8 d8 a7 fe 36 1f 57 f3 38
       1.6049045e-05 -0.00011336477 7.5893295e-06 0.000116033705
000050 5d 8c 0d 39 41 36 2b b9 ba 18 78 b8 79 9d 6d 39
       0.00013499097 -0.00016328042 -5.9150836e-05 0.00022660744
000060 87 6c 0c b9 a5 2d 07 ba 13 84 2c b8 fa 38 b6 b7
       -0.0001339187 -0.0005156643 -4.1131e-05 -2.1722622e-05
000070 ff a3 7d b9 84 5a 54 39 a9 b0 b5 38 4f 89 5c 39
       -0.00024189054 0.00020251615 8.663658e-05 0.00021031986
000080 45 ba d9 39 3b c4 44 3b 6b 25 c7 3b aa f1 99 b9
       0.00041528247 0.003002419 0.0060774586 -0.00029362488
000090 7a cb 8c bb 73 e2 df ba dc e9 73 bb fa af 75 3b
       -0.0042967172 -0.0017081037 -0.0037218248 0.0037488923
0000a0 b5 db 3a bb 72 15 28 3b ae 18 79 bb 4f cc 91 39
       -0.0028512303 0.0025647548 -0.0038009095 0.00027808777
0000b0 fb d3 90 3b 46 69 89 bb 21 b3 28 bb 3f 1b a5 3b
       0.0044198013 -0.004193458 -0.0025741535 0.0050386484
0000c0 be 1f 8b bb d2 56 2b bb 51 5d ac 3a f6 75 0b 3b
       -0.0042457273 -0.0026144278 0.0013150369 0.0021280027
0000d0 07 81 1e 3b 08 f2 51 bb bf 76 00 bb 9b 9a 84 3b
       0.0024185793 -0.003203513 -0.0019602028 0.0040467507
0000e0 bf 2a 33 bb d3 ab 39 bc bd e5 54 ba aa 08 f6 b9
       -0.002733871 -0.01133247 -0.0008121392 -0.00046927232
0000f0 4b 8b af bb b8 5b 78 3b a4 1b e6 3a 82 a8 ab 3b
       -0.005357181 0.0037896466 0.0017555845 0.0052385936
000100 69 ec 89 3a b4 94 14 3c dd bb 30 3c f2 78 ae b9
       0.0010522726 0.009068657 0.010786978 -0.00033277977
000110 4c 77 34 bc 01 ce 8c bb ab b3 13 bc 20 65 1b 3c
       -0.011014771 -0.0042970185 -0.009015004 0.009484559
000120 26 49 e8 bb e6 8a dd 3b 26 91 ff bb 2f ca 61 39
       -0.007088798 0.0067609427 -0.0077992855 0.00021532991
000130 9f b1 24 3c b0 9a 1b bc 6b 42 bf bb 20 cd 45 3c
       0.010052114 -0.00949733 -0.005836775 0.012072831
000140 b2 f6 1a bc 8d b0 ee bb 04 4d 93 3b 60 95 7f 3b
       -0.009458231 -0.00728423 0.004495265 0.0038998947
000150 f0 1c e8 3b 18 44 aa bb 9d 5b c7 bb ca 7f 2b 3c
       0.0070835277 -0.0051961057 -0.006083919 0.010467479
000160 28 a5 bb bb 78 85 96 bc 52 88 cd ba 49 e0 f0 b9
       -0.0057264753 -0.01837419 -0.0015680885 -0.00045943473
000170 f7 ea 29 bc 61 53 1e 3c 21 94 a0 3b 73 68 24 3c
       -0.010370961 0.009663434 0.004900471 0.010034668
000180 93 50 b4 37 2a 6b 2a 39 4f 7f 46 39 d0 47 10 b7
       2.1495192e-05 0.00016252385 0.00018930178 -8.599789e-06
000190 61 6b 4f b9 30 d9 9d b8 3b 5e 1c b9 06 fe 32 39
       -0.0001978106 -7.526798e-05 -0.00014912423 0.00017070034
0001a0 87 b4 06 b9 95 59 dd 38 ec 2c 0d b9 59 fb 35 36
       -0.00012846488 0.00010554787 -0.00013463543 2.7117405e-06
0001b0 de de 3d 39 05 dc 32 b9 7d a0 d3 b8 47 5e 63 39
       0.00018107469 -0.00017057366 -0.00010091157 0.00021683528
0001c0 4e 4a ff b8 7a e5 0a b9 68 94 a9 38 19 a9 9b 38
       -0.00012173188 -0.00013246192 8.086191e-05 7.422473e-05
0001d0 6e e9 07 39 44 c3 c5 b8 bf 47 d9 b8 c7 25 49 39
       0.00012961563 -9.430063e-05 -0.0001036073 0.00019182927
0001e0 3d 3a c7 b8 9c 9b 90 b9 4c 71 e9 b7 dd 65 1a b7
       -9.499907e-05 -0.00027581758 -2.7828522e-05 -9.202832e-06
0001f0 fb 9b 39 b9 20 01 36 39 47 ee b6 38 39 7a 2c 39
       -0.00017701082 0.00017357292 8.722819e-05 0.0001644873
000200 2a 6b 24 3a 5e 53 93 3b df e8 02 3c d2 9c be b9
       0.0006272072 0.004496022 0.007990091 -0.00036356464
000210 fa 5e ca bb 25 f2 1f bb f0 59 ab bb ee 7e b1 3b
       -0.006175873 -0.0024405804 -0.0052292272 0.0054167425
000220 c8 9e 85 bb ff 4f 71 3b 73 2d a9 bb 59 79 b6 39
       -0.004077766 0.0036821363 -0.0051628887 0.00034804156
000230 c9 cc cb 3b 44 63 bf bb 2f 10 6b bb 15 62 e9 3b
       0.0062194807 -0.005840691 -0.00358678 0.007122288
000240 e1 30 c0 bb aa 8d 78 bb 09 79 05 3b 9d ec 3e 3b
       -0.005865202 -0.0037926235 0.0020366332 0.0029132732
000250 41 ce 6b 3b ec 59 89 bb dd 5b 41 bb b7 7b be 3b
       0.0035981091 -0.0041916277 -0.0029504218 0.005813088
000260 d3 ea 78 bb a8 45 6d bc e3 71 94 ba 2e 7a 16 ba
       -0.0037981763 -0.014481939 -0.0011325445 -0.0005740252
000270 8f 46 ea bb 8e 88 b1 3b 82 77 28 3b ef 40 e4 3b
       -0.0071495245 0.00541789 0.0025705998 0.0069657485
000280 35 98 b4 38 e4 22 41 3a 22 fe a5 3a 2d 91 50 b8
       8.6114196e-05 0.0007367565 0.0012664238 -4.972627e-05
000290 28 ca 83 ba 59 ea ce b9 4e 96 5d ba ed 08 65 3a
       -0.0010054754 -0.00039465984 -0.0008452878 0.0008736987
0002a0 81 97 2d ba 58 46 1a 3a a4 1a 57 ba fc 59 45 38
       -0.0006622002 0.0005885116 -0.0008205569 4.7052265e-05
0002b0 c6 7f 82 3a 97 b1 76 ba de cc 16 ba 56 ca 96 3a
       0.0009956292 -0.0009410618 -0.00057525735 0.0011504393
0002c0 dc 0a 69 ba d7 ed 23 ba 3d c1 af 39 b0 d6 9b 39
       -0.0008889863 -0.00062533974 0.00033522575 0.00029723858
0002d0 c2 d0 1c 3a 15 81 11 ba 0b c2 ff b9 5e 20 79 3a
       0.0005982035 -0.0005550546 -0.00048781963 0.0009503419
0002e0 dc 93 aa b9 07 91 0f bb 0a ea 28 b9 6e 8a 9d b8
       -0.0003253509 -0.0021906511 -0.00016108915 -7.512128e-05
0002f0 f3 aa 91 ba 25 fd 66 3a ad 27 dd 39 fe 10 92 3a
       -0.0011113569 0.0008811525 0.00042181966 0.001114398
000300 cc 78 17 3a 9e 4d 9b 3b 3e b2 00 3c c4 4f b6 b9
       0.0005778193 0.0047394773 0.007854996 -0.00034773175
000310 26 45 cf bb 04 2a 23 bb fd 86 b0 bb 41 73 b3 3b
       -0.006325382 -0.002489687 -0.0053871856 0.005476386
000320 06 e3 87 bb 8c 52 7b 3b 0e cc a8 bb d1 bf 9b 39
       -0.0041469363 0.0038348762 -0.0051512783 0.00029706818
000330 1d 48 cb 3b cf 19 c1 bb 90 aa 6d bb 0b 98 ec 3b
       0.006203665 -0.005892969 -0.0036264993 0.0072202734
000340 36 46 c3 bb c8 9d 83 bb 62 7a 11 3b e3 4b 36 3b
       -0.0059592975 -0.0040166117 0.002219819 0.0027816228
000350 08 95 77 3b d8 ad 82 bb 9d ba 4c bb 4a 5d c4 3b
       0.0037778039 -0.003988009 -0.003123916 0.0059925662
000360 c2 5d 75 bb 78 c3 69 bc e3 f6 89 ba b6 fc 04 ba
       -0.0037439917 -0.014267795 -0.0010525848 -0.0005073057
000370 36 4a e9 bb b0 73 b6 3b a0 e2 2f 3b 61 e4 e3 3b
       -0.0071194423 0.0055679902 0.002683796 0.006954715
000380 5d c0 cb 39 7d 7a 45 3b 2f ab ad 3b ec 71 71 b9
       0.000388625 0.0030132823 0.0052999477 -0.0002302599
000390 57 c8 86 bb b8 85 d5 ba 3a d7 65 bb 4a 70 6b 3b
       -0.004113238 -0.0016290462 -0.0035070912 0.0035925084
0003a0 1b fc 31 bb 19 9a 20 3b 6b 55 60 bb 6a 7b 71 39
       -0.0027158323 0.0024505912 -0.00342306 0.00023029526
0003b0 87 d8 86 3b f9 f7 7e bb 15 80 1c bb 19 66 9b 3b
       0.0041151675 -0.0038905127 -0.0023880054 0.0047423956
0003c0 70 d2 7f bb bc e3 26 bb 06 a8 b3 3a fc 91 f5 3a
       -0.0039035343 -0.002546533 0.0013706691 0.0018735523
0003d0 70 51 1e 3b 69 b6 32 bb cd cc 01 bb 07 0c 7e 3b
       0.0024157427 -0.002726937 -0.0019805909 0.0038764493
0003e0 91 4c 1a bb b8 45 1e bc c1 5d 41 ba df 04 c4 b9
       -0.0023544172 -0.009660177 -0.0007376336 -0.00037387662
0003f0 91 d2 9a bb 51 ba 6c 3b 79 d8 e1 3a 1e 1d 98 3b
       -0.0047248085 0.0036121795 0.0017230652 0.004642143

lstm.bias_ih_l0 f4 [128]
000000 50 56 56 3a dd c3 73 3c 39 66 81 3d ee d7 6d 3a
       0.0008176314 0.01487824 0.063183255 0.00090730086
000010 51 3d 0d 3d f1 87 8a 3b ed 21 d6 3c f4 e7 87 3c
       0.034482304 0.0042276313 0.026139224 0.016590096
000020 66 e1 4c 3c eb 68 6a 3c ec 3e d1 3c 4f 15 4e b9
       0.012504911 0.014307241 0.025542699 -0.00019653629
000030 e7 5d ec 3c 34 b3 eb 3c 96 93 31 3c 66 dd 09 3d
       0.02885337 0.028771974 0.01083841 0.033658408
000040 08 7c 14 3d 10 95 85 3c 9a 84 9e 3b 83 39 5b 3c
       0.036251098 0.01630643 0.0048375847 0.013380411
000050 15 3a 38 3c 5f 3e cd 3c cd 45 de 3b 50 a4 16 3d
       0.011244317 0.025054155 0.0067832232 0.036777794
000060 f7 f2 a3 3c cc 1d 1c 3e 31 fb 69 3a 6b d9 1b 3a
       0.020013316 0.15245742 0.0008925675 0.00059451786
000070 de 67 4c 3d c8 f6 4d 3c cc ea a5 3b 7b ac 4d 3d
       0.049903743 0.012571044 0.0050633904 0.05021332
000080 e6 ed 2b 3a 54 31 5c 3c d8 8e 6f 3d 78 76 23 3a
       0.0006558582 0.013439495 0.058485836 0.000623561
000090 d1 af 1c 3d bf 30 61 3b a2 e3 be 3c ea 7b 68 3c
       0.03825361 0.003436133 0.023301903 0.0141897
0000a0 0f e3 30 3c 48 f5 46 3c 90 a6 b4 3c 69 12 f4 b9
       0.0107963225 0.012143441 0.02205208 -0.00046553023
0000b0 df e5 c7 3c 01 d0 d7 3c 50 c8 12 3c f6 71 f0 3c
       0.024401603 0.026344301 0.008958891 0.029351216
0000c0 9a 95 07 3d 3e d8 58 3c c7 96 7e 3b 53 65 35 3c
       0.033101656 0.01323515 0.0038847195 0.011071521
0000d0 42 69 07 3c 2b d6 aa 3c 2b 8f ba 3b 2a 2c b4 3c
       0.0082648415 0.020854076 0.0056933365 0.021993715
0000e0 bf f9 8b 3c 77 7e 29 3e 5c 50 34 3a 60 3b f5 39
       0.017086862 0.16552149 0.00068784296 0.0004677428
0000f0 58 3b 3d 3d f7 5a 8c 3c c8 b6 89 3b a5 bd 3c 3d
       0.046199173 0.01713322 0.0042026974 0.046079297
000100 a3 d3 48 3c 26 8a a6 3d b7 4e 68 3c b4 f7 29 b9
       0.012257489 0.081318185 0.014178923 -0.00016209373
000110 f8 77 ed bd cd d1 98 bc d9 c2 09 bd 44 c6 c8 3d
       -0.11595148 -0.018654728 -0.033633087 0.09803441
000120 58 a9 30 bd d7 75 7e 3d cc 02 06 bd f3 ab 08 3d
       -0.04313025 0.0621241 -0.03271751 0.03336711
000130 2d dd 2c 3b 13 28 4f 3c b8 b2 93 bc cf a2 cd 3d
       0.0026376948 0.012643832 -0.018029556 0.10040819
000140 df 49 97 bc b4 4e e1 bd df ae 71 3d 3b 11 00 3d
       -0.018467842 -0.110013396 0.05900466 0.031266432
000150 65 b4 8d 3d 67 15 b8 3c c7 74 f1 bd d5 64 2f 3d
       0.06919173 0.022471143 -0.11789852 0.04282077
000160 e1 c6 90 bb f0 94 a5 3d 33 f0 9d 3c 8a f1 e6 3b
       -0.0044182395 0.08085048 0.019279575 0.0070478367
000170 54 2b 85 3c 8d 81 85 3d 5e 6e 83 3d c1 81 2e bd
       0.016256012 0.065188505 0.06417535 -0.04260421
000180 59 fc 52 3a 10 1d 88 3c 71 21 98 3d c6 ed 6c 3a
       0.0008048467 0.01661542 0.074282534 0.00090381166
000190 00 21 9f 3c 04 df 90 3b 87 ac f8 3c 24 38 ac 3c
       0.019424915 0.004421117 0.030355705 0.021022864
0001a0 de 4c 82 3c 1d 99 7d 3c ac 7a e4 3c 12 b4 28 b9
       0.015905794 0.0154784 0.027890526 -0.0001608881
0001b0 6b 4c 18 3d 04 5f 0b 3d ae 2e 3b 3c 68 a9 3f 3d
       0.037182253 0.03402616 0.0114247035 0.046792418
0001c0 19 9c 29 3d 2d 10 a7 3c 9a 21 a9 3b bd e1 60 3c
       0.041408632 0.020393455 0.0051614763 0.013725695
0001d0 c3 7b 74 3c 80 56 d3 3c 7b 9a ed 3b 6a 80 00 3d
       0.014922085 0.025798082 0.0072510815 0.031372465
0001e0 93 4d ad 3c f3 7d 48 3e 0e 07 6c 3a 6a bf 1b 3a
       0.021155154 0.19579296 0.0009003737 0.00059413037
0001f0 d7 86 69 3d 16 20 ee 3c c6 4b b2 3b 51 30 6d 3d
       0.05701336 0.029068034 0.005441162 0.057907406

lstm.bias_hh_l0 f4 [128]
000000 88 d1 57 3a e2 e6 85 3c 53 58 82 3d ba c6 6d 3a
       0.0008232822 0.016345445 0.06364503 0.0009070445
000010 a7 8d 8a 3c 7c 8c 8c 3b 5f a4 d3 3c 5a 0d b2 3c
       0.016913248 0.004289208 0.025835214 0.021734882
000020 db 22 4c 3c d9 16 69 3c b0 17 d1 3c 5b d1 bd b9
       0.012459482 0.014226639 0.02552399 -0.0003620487
000030 a5 03 0c 3d 8a 81 d8 3c a7 78 31 3c c9 41 cc 3c
       0.034183163 0.026428957 0.010831988 0.024933713
000040 9c 72 14 3d c8 15 8c 3c 7a a8 9f 3b 23 07 5b 3c
       0.036242113 0.01710023 0.004872379 0.013368401
000050 a4 60 1c 3c 1a 7f cb 3c 5e e3 d9 3b 73 cc ac 3c
       0.009544525 0.02484088 0.0066494187 0.021093583
000060 90 f0 a3 3c 02 08 1c 3e da 34 6a 3a 26 e1 1b 3a
       0.02001217 0.1523743 0.0008934267 0.00059463305
000070 b0 7f 4c 3d e1 76 f5 3c 23 b3 a6 3b b0 ac 51 3d
       0.04992646 0.029963912 0.0050872727 0.05119008
000080 35 f0 2b 3a 39 b8 7a 3c d4 64 6c 3d 5c 76 23 3a
       0.0006558926 0.015302711 0.057713345 0.00062355935
000090 65 e4 ab 3c bb 2c 61 3b ab db bf 3c d4 7b 86 3c
       0.02098293 0.0034358937 0.023420176 0.016416468
0000a0 b2 cc 2d 3c c8 56 46 3c 10 a7 b4 3c 52 c8 ad b9
       0.010607885 0.012105651 0.022052318 -0.00033146382
0000b0 e0 3b d6 3c c7 20 c4 3c 20 c6 12 3c c0 e1 e5 3c
       0.026151597 0.02394141 0.0089583695 0.028061748
0000c0 d5 91 07 3d 90 46 6b 3c b7 b6 7e 3b 6e 63 35 3c
       0.03309806 0.014360085 0.003886623 0.011071069
0000d0 8e 88 21 3c f2 ef ab 3c e6 d5 ba 3b 5a b9 77 3c
       0.009859217 0.020988438 0.005701768 0.015119875
0000e0 44 f4 8b 3c 94 80 29 3e 2a 2b 34 3a ef 38 f5 39
       0.017084248 0.16552955 0.0006872887 0.0004677246
0000f0 d9 37 3d 3d b0 73 67 3c 99 c3 89 3b 7f 3b 3c 3d
       0.04619584 0.014126703 0.0042042253 0.045955177
000100 a0 53 ad 3b 29 53 1b 3e 68 25 c1 bd 24 28 5a 3c
       0.00528951 0.15168442 -0.09430963 0.013315234
000110 25 38 8e bd 44 03 43 bd 59 08 9e bd f8 9e 6c 3d
       -0.069443025 -0.047610536 -0.07716436 0.057768792
000120 3d 84 86 bd a4 b4 59 3d 63 37 a3 3c ba b8 59 bd
       -0.06568191 0.053150788 0.019923871 -0.053154685
000130 ac 7f be 3d 7e 09 c7 bd eb c2 02 bd ac c1 44 3d
       0.09301695 -0.09718607 -0.03192417 0.048036262
000140 d5 4f 01 bd 53 08 2f bd 9b b9 9e 3d bd dc 48 bd
       -0.031570274 -0.042732548 0.07750245 -0.049038637
000150 5f 2d da 3d 87 ef 56 3d 66 43 42 bd 75 81 0d 3e
       0.10653185 0.052474525 -0.047427557 0.13818915
000160 a5 d3 9a 3b dd 2f 0a 3e 1d de 88 bc 30 d3 b2 3c
       0.004724937 0.13494821 -0.016707474 0.021829218
000170 9c 77 7a 3c 27 87 be 3d 03 70 26 3d b3 51 79 3c
       0.015287306 0.09303122 0.040634166 0.0152172325
000180 ba 7b 55 3a 54 3f 9b 3c 77 69 97 3d 32 1e 6d 3a
       0.0008143742 0.018951096 0.07393163 0.0009045332
000190 6f d2 f1 3c 60 82 90 3b 36 cc ed 3c 09 e0 d1 3c
       0.029519288 0.004410073 0.02902804 0.025619524
0001a0 bb 39 56 3c 4a 81 7d 3c 53 46 e4 3c 28 0d e4 b9
       0.013075287 0.015472719 0.027865564 -0.0004349735
0001b0 c9 fe f6 3c 7b 18 0c 3d af 42 3b 3c be 38 02 3d
       0.030150788 0.034203034 0.011429473 0.031792395
0001c0 e5 9c 29 3d 2e ac 9a 3c 1c 01 ab 3b 77 a5 60 3c
       0.041409392 0.01888093 0.005218638 0.013711325
0001d0 4b 9e 04 3c 0e 81 d3 3c 5a c8 ec 3b 7a fb 55 3d
       0.008094381 0.025818374 0.007226032 0.05224178
0001e0 66 47 ad 3c 3a 7f 48 3e 6a fe 6b 3a 0b eb 1b 3a
       0.02115221 0.19579783 0.0009002449 0.0005947805
0001f0 26 7b 69 3d 82 e4 1d 3d 13 61 b1 3b 4e 61 71 3d
       0.05700221 0.038548 0.0054131835 0.058930688

fc.weight f4 [1, 37]
000000 86 28 76 bd 06 a5 36 be 9e bb 7a be a2 b6 93 3d
       -0.06009724 -0.17836389 -0.24485633 0.07212569
000010 a5 72 3f 3e cf b1 79 3d a0 c9 66 3e 8e 47 05 be
       0.18696077 0.060960587 0.22537851 -0.13015577
000020 9a d0 02 3e 13 4e 2c be 0a 2f 30 3e 0c ff 58 3d
       0.12774888 -0.16826658 0.17205444 0.052977607
000030 8e ca 40 be d5 41 41 3e d5 6d d4 3d 3f 0a 7b be
       -0.18827268 0.18872769 0.10372511 -0.24515627
000040 27 ed 85 3e 83 6b 55 3e 7f 46 fe bd db aa 15 be
       0.26157495 0.20841794 -0.1241579 -0.14615957
000050 80 7f 00 be 2b 85 2e 3e fb 44 e6 3d cd 8a 6c be
       -0.12548637 0.17042987 0.11243626 -0.23099823
000060 d1 32 36 3e 05 aa 04 3f c1 62 7c 3c 75 c4 b1 3c
       0.17792822 0.5182193 0.015404404 0.021700123
000070 0e 02 86 3e 94 47 50 be 70 15 b0 bd 25 b2 83 be
       0.26173443 -0.20339805 -0.08597839 -0.2572185
000080 1d 34 4f 3d a9 d3 4c 3d 65 15 4d 3d 95 ad 5f 3d
       0.05058681 0.050006542 0.05006923 0.0546089
000090 78 76 6b 3d
       0.057486027
