model_final_day.pth (torch, 20760 bytes, 5 tensors)

lstm.weight_ih_l0 f4 [128, 1]
000000 48 11 28 3b ac 42 a6 36 77 53 01 3a c8 a3 32 3c
       0.0025645066 4.954947e-06 0.00049333967 0.010903306
000010 9c 8a 01 b7 1a 3b b5 3a 49 63 f1 3c 5f ba 3f 3b
       -7.721272e-06 0.0013826818 0.029466288 0.0029255373
000020 b2 53 c6 3b 8a 1b 8a 39 fa 0f 42 3c d2 b5 fa 38
       0.0060524577 0.0002634193 0.011844629 0.000119547956
000030 9c 3d e1 39 cd 46 84 39 30 11 f0 b7 b3 43 b3 bb
       0.00042961247 0.00025229753 -2.8618233e-05 -0.005470717
000040 11 52 22 3c 09 f8 25 b7 af bb 43 3d 35 0b 80 3c
       0.0099072615 -9.892517e-06 0.04778641 0.015630344
000050 b7 4f 4b b9 41 48 0c 39 42 88 8c b3 fd 50 f4 3b
       -0.00019389285 0.00013378357 -6.544043e-08 0.0074559436
000060 9f c7 19 3c 0c e4 10 bb 8d b0 b3 ba 30 ad 56 ba
       0.009385972 -0.0022108583 -0.0013709232 -0.0008189259
000070 78 b8 34 39 3b 7c ed 39 43 51 84 3c c6 ae 4e 3c
       0.00017234858 0.00045296722 0.01615203 0.012614911
000080 93 21 13 3b 4e bc 0c 36 4f 21 cc 39 71 7e 1c 3c
       0.0022450432 2.0971233e-06 0.0003893473 0.00955163
000090 f8 44 f6 b6 f3 74 88 3a f3 5a e6 3c f1 15 0b 3b
       -7.3394003e-06 0.001041083 0.02811954 0.0021222795
0000a0 a1 bd a6 3b 50 af 54 39 be 07 28 3c 38 37 eb 38
       0.0050885235 0.00020283205 0.010255752 0.000112159585
0000b0 84 96 d9 39 fb b1 5f 39 84 d2 cc b7 ae bc a6 bb
       0.00041501608 0.0002133324 -2.4416724e-05 -0.0050884103
0000c0 6b 54 10 3c 23 fe c0 b6 f7 35 48 3d f9 b6 66 3c
       0.008809189 -5.7516313e-06 0.04887959 0.01408171
0000d0 8e fc e1 b8 3d e4 e6 38 74 ff 46 b4 04 fc d6 3b
       -0.00010775878 0.00011009767 -1.853312e-07 0.0065608043
0000e0 8f 1a 05 3c 35 83 0f bb b0 68 b8 ba 31 0d 68 ba
       0.008124008 -0.0021898274 -0.0014069285 -0.00088520633
0000f0 25 77 19 39 f6 2e c7 39 df b2 6a 3c 06 34 37 3c
       0.00014635602 0.00037991226 0.014324873 0.011181837
000100 0d 4f 7b bd ec 2d 17 3c 2e 40 8a 3d ff eb 73 be
       -0.061354686 0.009227257 0.067505226 -0.23820494
000110 92 e0 e0 3a 84 80 8f bd f5 00 c7 be f1 f4 73 3e
       0.0017156771 -0.07006934 -0.38867918 0.23823906
000120 57 fd f1 bd aa 9d 79 3c cf 43 90 be 42 1f b9 3c
       -0.11815899 0.015235344 -0.28176734 0.022597913
000130 56 ac d2 bd 68 23 94 bc f6 d1 09 3c ba 92 38 be
       -0.10286777 -0.01808329 0.008411875 -0.18024722
000140 5c a0 3e 3e cd e7 ce bb c4 e4 e1 3e 73 67 47 be
       0.1861586 -0.006314254 0.44119847 -0.19473056
000150 46 b5 38 3d 9b ee ba bc df bf 6c ba 4a fa 00 3e
       0.04509475 -0.022818854 -0.00090312766 0.12595478
000160 68 64 25 be f7 b6 67 3d 76 d0 dd bd a2 3b e5 bd
       -0.16151583 0.056570973 -0.108307764 -0.11193015
000170 90 dd e9 bc d0 fc 02 3d df b4 89 be 75 b4 80 be
       -0.028548032 0.031979382 -0.26895806 -0.25137678
000180 0b 8f 25 3b 31 a7 4f 36 ec 7d f6 39 28 23 36 3c
       0.0025262262 3.0942722e-06 0.00047014595 0.01111678
000190 d2 05 fe b6 81 82 98 3a 9d 3c f8 3c 90 48 40 3b
       -7.5704675e-06 0.0011635573 0.03030234 0.0029340126
0001a0 2d f0 c0 3b b7 bd 73 39 9a cf 49 3c d4 60 00 39
       0.005888006 0.0002324496 0.0123175625 0.00012243103
0001b0 b7 21 cf 39 52 c9 7a 39 88 c1 07 b8 77 b7 b0 bb
       0.00039507236 0.00023916856 -3.236675e-05 -0.0053929645
0001c0 cf 83 25 3c a4 08 42 b7 32 4e 4e 3d ad f5 83 3c
       0.010102226 -1.1565313e-05 0.05036754 0.016108358
0001d0 1e 71 3f b9 85 42 19 39 c8 65 5d b4 ab 20 ff 3b
       -0.00018257319 0.00014615997 -2.0619257e-07 0.0077858767
0001e0 50 78 17 3c a0 33 11 bb da ab ad ba d0 5d 59 ba
       0.009244993 -0.0022156015 -0.0013250068 -0.0008291872
0001f0 f6 87 2a 39 6e 43 12 3a 99 3f 85 3c 60 60 52 3c
       0.00016263113 0.0005579506 0.016265677 0.01284036

lstm.weight_hh_l0 f4 [128, 32]
000000 3c 88 50 b9 d5 0b 19 37 27 60 b1 38 b5 14 cd b9
       -0.00019887177 9.1222655e-06 8.4579275e-05 -0.00039116075
000010 5c 19 4e b7 06 28 e2 b8 3e 14 36 ba 02 67 7c 39
       -1.2284461e-05 -0.00010783975 -0.00069457653 0.00024070966
000020 4e fc 7d b9 f4 de 4b 38 c4 4e d4 b9 3e d9 0f 38
       -0.00024221951 4.8606613e-05 -0.00040494476 3.429618e-05
000030 74 23 d3 b8 20 80 5e b8 85 29 84 b6 aa 29 36 b8
       -0.00010067868 -5.304825e-05 -3.93874e-06 -4.3430984e-05
000040 0c 85 ae 39 22 98 00 37 2a eb 76 3a 3c 4f e5 b9
       0.00033286994 7.664816e-06 0.00094191974 -0.00043737318
000050 df 7e df 37 7d 7d 07 b8 4c 73 fd 32 51 0a 91 39
       2.664275e-05 -3.230338e-05 2.9505507e-08 0.00027664241
000060 d6 80 9e b9 a9 00 2d b8 ae 66 88 b8 b0 9a 8b b8
       -0.000302321 -4.124703e-05 -6.504111e-05 -6.656849e-05
000070 9e 8a 23 b8 93 04 9c 38 8c 09 e6 b9 e7 cc cb b9
       -3.8991326e-05 7.439512e-05 -0.00043876132 -0.0003887184
000080 1c 89 2a b6 92 2b 4b b3 28 17 99 b5 2b 86 be 34
       -2.5411782e-06 -4.7304248e-08 -1.1406128e-06 3.5487878e-07
000090 bd e7 60 b3 63 3f 9d b3 28 81 62 36 7e 55 9c b6
       -5.236483e-08 -7.322412e-08 3.3751803e-06 -4.659115e-06
0000a0 15 c3 06 b6 df 94 4f 35 b5 e7 1d 36 09 b1 b9 b2
       -2.0081109e-06 7.7330145e-07 2.3529694e-06 -2.161734e-08
0000b0 84 99 fe 35 db f9 33 b5 dc 62 e1 33 8a 34 e7 36
       1.8969154e-06 -6.7046284e-07 1.04953614e-07 6.890453e-06
0000c0 60 ee b5 35 1a 81 a0 34 f2 b7 03 b4 e8 2a 2b b6
       1.3554927e-06 2.9896256e-07 -1.2267245e-07 -2.550596e-06
0000d0 47 41 3a b5 80 7d 0e b3 72 ed b7 32 33 1f 38 36
       -6.938539e-07 -3.3176093e-08 2.1411982e-08 2.7436297e-06
0000e0 d5 58 5f 35 2b d1 86 b6 18 84 65 36 66 ea 76 36
       8.320324e-07 -4.0178616e-06 3.4200548e-06 3.6793294e-06
0000f0 ca 97 f3 33 b0 a9 2d 35 75 a7 6f 35 e7 ce ba 34
       1.13431796e-07 6.469445e-07 8.927812e-07 3.479574e-07
000100 12 30 a6 b8 8e b8 b4 b6 58 b0 bd b7 6c 65 cf b6
       -7.9244506e-05 -5.385903e-06 -2.2612672e-05 -6.180888e-06
000110 4a 22 5b b7 da bd a5 b7 c6 48 5c 38 dd 66 40 b8
       -1.3061401e-05 -1.975794e-05 5.2519863e-05 -4.5872166e-05
000120 71 db b0 b8 59 22 ef 37 92 be db 37 bd 09 a6 36
       -8.433208e-05 2.8507015e-05 2.6195576e-05 4.948319e-06
000130 9f 74 45 38 66 3b da b7 80 9b f3 b6 f8 2a 7b 39
       4.7077072e-05 -2.6015285e-05 -7.260067e-06 0.00023953232
000140 84 0b dc 38 fb e4 3b 37 62 1a cd 37 3a b8 17 b9
       0.000104925624 1.1199382e-05 2.445019e-05 -0.00014469112
000150 fa eb 30 b8 5f e0 8d b6 e9 d6 9d 35 bc da e7 38
       -4.218144e-05 -4.2282477e-06 1.1759959e-06 0.00011055681
000160 27 97 da b8 cb 42 07 b9 f5 fc ea 38 6b f5 bc 38
       -0.000104232044 -0.00012899486 0.000112051064 9.010251e-05
000170 24 5b f7 b5 51 4b ba 37 9e 20 55 b7 9f a8 c3 b7
       -1.842946e-06 2.2208e-05 -1.2703384e-05 -2.3324332e-05
000180 36 91 95 ba c2 42 62 b7 a4 66 8e 38 d4 4a a7 ba
       -0.0011411074 -1.3486193e-05 6.790206e-05 -0.0012763389
000190 65 65 27 b9 7a 35 de b9 58 10 e2 ba a9 0f 79 b9
       -0.00015964133 -0.00042382983 -0.0017247302 -0.00023752324
0001a0 77 ce bb ba 02 28 c7 39 4b 22 7f ba 3e a3 23 39
       -0.0014328499 0.00037986046 -0.0009732588 0.00015605704
0001b0 fe 9a 22 38 58 ce bc b9 45 00 0b b9 a4 47 c5 3a
       3.8768158e-05 -0.00036011892 -0.00013256173 0.0015051258
0001c0 6d 77 e0 3a 53 59 cd 38 ac 6f 3c 3b 69 a6 21 bb
       0.0017125435 9.7918e-05 0.0028753085 -0.0024665839
0001d0 51 00 5f b9 39 ae 07 b9 95 77 1b 37 3f 31 e9 3a
       -0.00021267055 -0.00012939506 9.266562e-06 0.0017791166
0001e0 58 86 03 bb 2d 4a b9 ba 45 b5 5a 3a 5f d1 36 3a
       -0.0020069089 -0.0014136486 0.00083430513 0.0006973948
0001f0 4e d5 01 b9 ff 0a c2 39 1d 82 c9 ba 60 6c ae ba
       -0.00012381861 0.00037010756 -0.001537386 -0.0013307445
000200 87 2b 43 34 bf 27 6b b3 c1 34 bd b4 e5 51 ad 35
       1.8176625e-07 -5.475135e-08 -3.5242377e-07 1.2913339e-06
000210 aa 0c 25 b2 3c dd 3a 33 44 ba 3a 36 9b 5b 76 b5
       -9.6071435e-09 4.350771e-08 2.782458e-06 -9.1775445e-07
000220 ef 2e 0a 35 a9 e6 54 b3 28 df f3 35 23 61 dd b3
       5.1477303e-07 -4.956988e-08 1.8169858e-06 -1.03087835e-07
000230 3a d0 17 35 16 25 89 33 b7 68 81 b3 3f 54 97 35
       5.6554893e-07 6.3863055e-08 -6.026078e-08 1.1274896e-06
000240 7e ee 88 b5 39 ed aa 32 5f 95 82 b6 ae 15 33 35
       -1.02022e-06 1.9898481e-08 -3.891691e-06 6.6714244e-07
000250 c9 3a 8d b4 61 cb 0a 34 84 07 d1 31 14 45 09 b5
       -2.6306068e-07 1.292624e-07 6.083555e-09 -5.1137e-07
000260 92 25 7e 35 ad 57 70 b4 b3 33 38 35 f2 df 32 35
       9.4677046e-07 -2.2383638e-07 6.8620574e-07 6.663605e-07
000270 51 7d 1a 34 5e a6 16 b4 da 7c 80 35 e7 ce 64 34
       1.4387957e-07 -1.4030363e-07 9.57308e-07 2.1309425e-07
000280 bc 84 ec b8 18 f2 1b 36 d2 01 42 37 23 92 3a b9
       -0.00011278081 2.3237717e-06 1.1563725e-05 -0.00017792782
000290 ea 41 43 b7 6a 03 47 b8 01 1c 65 b9 13 3c bb 37
       -1.16382525e-05 -4.7448477e-05 -0.00021849574 2.2320111e-05
0002a0 3f 4a 3e b9 15 ee 1f 37 05 ac 0e b9 e8 cb 7b 37
       -0.00018147471 9.532571e-06 -0.00013606258 1.50082415e-05
0002b0 ec 33 13 37 de d1 12 b8 08 28 28 b7 c7 96 04 39
       8.773972e-06 -3.5004567e-05 -1.0022901e-05 0.0001264467
0002c0 9e f1 f0 38 5d cd df 36 ae 0a bc 39 a8 a8 87 b9
       0.000114890965 6.6698253e-06 0.0003586611 -0.00025874865
0002d0 5c bb 60 b7 67 1c 64 b7 87 e8 3d 35 9c 01 3a 39
       -1.3395063e-05 -1.3596472e-05 7.074636e-07 0.00017738942
0002e0 80 bb 15 35 a5 99 d5 b8 e8 da 6c 38 87 6c 32 38
       5.5779674e-07 -0.0001018525 5.6470657e-05 4.253958e-05
0002f0 cb a2 8d b7 bc a0 2d 38 67 d8 3e b9 40 cd 2c b9
       -1.6884316e-05 4.139611e-05 -0.00018200428 -0.0001647966
000300 e2 a8 71 bb 91 ee ee b8 30 ad e6 b9 8d e3 30 bb
       -0.0036874344 -0.00011393161 -0.00043998053 -0.00269911
000310 b3 8d f7 b9 f2 1e 9d ba 8b de 14 bb 8f cd 01 bb
       -0.00047217085 -0.0011987372 -0.0022715654 -0.001980636
000320 1a eb 8b bb a3 c4 4e 3a 35 19 d0 ba 5c b3 a7 39
       -0.0042699696 0.00078875775 -0.0015876653 0.00031986355
000330 b5 88 3b 3a 4f 6c 8f ba c8 be 05 ba 77 da eb 3b
       0.0007153855 -0.0010942313 -0.0005101976 0.007197674
000340 38 02 a3 3b 17 20 c3 39 34 2c b3 3b c2 44 f0 bb
       0.0049746297 0.00037217207 0.005467916 -0.0073324153
000350 5c 8f a6 ba b5 bf ab b9 62 87 3e 38 c8 92 c8 3b
       -0.0012707519 -0.00032758494 4.5425615e-05 0.0061210133
000360 03 a9 98 bb 63 83 95 bb 4e 94 71 3b 49 e3 35 3b
       -0.0046588196 -0.0045627817 0.0036862078 0.002775388
000370 99 6f 8d b9 1a aa 95 3a 91 97 86 bb 77 2d 54 bb
       -0.00026976762 0.0011418492 -0.0041074236 -0.0032375732
000380 f9 4b 69 ba 18 2a dd 36 fb 59 bc b9 36 92 a0 36
       -0.00088995654 6.5912136e-06 -0.00035925195 4.785393e-06
000390 4e b6 19 b9 17 59 8a b8 15 06 cb 3a 80 f9 c0 ba
       -0.00014659131 -6.596947e-05 0.0015489483 -0.0014722794
0003a0 b7 7d 63 ba d0 d5 aa 39 8f 74 62 3a 63 38 9e 37
       -0.0008678096 0.0003258423 0.00086385844 1.8861325e-05
0003b0 17 17 13 3a fd d4 90 b9 63 b4 42 b9 9f 4f 24 3b
       0.00056110456 -0.0002762451 -0.00018568481 0.0025071872
0003c0 68 52 41 3a b5 7f ef 38 b9 1b 8b ba 86 45 c1 ba
       0.0007374645 0.000114201954 -0.001061312 -0.0014745451
0003d0 2b fe ec b9 e9 93 37 b7 1e 0a 6e 37 41 42 95 3a
       -0.00045202798 -1.0942088e-05 1.4188261e-05 0.0011387543
0003e0 3e a2 47 ba e3 b1 ce ba 07 30 a6 3a ed 70 99 3a
       -0.00076154235 -0.0015769567 0.0012679108 0.0011706628
0003f0 96 3a ea 36 9d 9a 5f 39 df d3 57 37 de 18 90 38
       6.9805637e-06 0.00021324535 1.2864329e-05 6.871087e-05

lstm.bias_ih_l0 f4 [128]
000000 c8 f8 3c 3b 32 0d bd 38 22 be 4c 3b 09 76 10 3d
       0.0028834809 9.01468e-05 0.0031241258 0.035268817
000010 3e fb 6d 36 8f 01 51 3b 1a e1 f8 3d 88 b1 1e 3d
       3.5461994e-06 0.0031891798 0.1215231 0.038743526
000020 ae b1 20 3c 46 40 68 39 cf 47 55 3d d7 8b cb 39
       0.009807987 0.00022149188 0.052070435 0.00038823366
000030 f1 84 d6 3b e7 92 8d 39 bf 92 3d 38 35 48 a1 3c
       0.0065466096 0.00027003066 4.519778e-05 0.019687751
000040 6e 9c ac 3c 73 ce 9e 37 d5 7e 22 3e 77 88 d1 3c
       0.021070685 1.8931203e-05 0.15868695 0.025577767
000050 fa d8 b6 3a cd 8e c3 39 16 b5 1c 35 a4 4b 36 3c
       0.0013950162 0.00037299693 5.8378043e-07 0.011126433
000060 9a fb 97 3c 7d 51 49 3b e4 e5 2e 3c 77 77 13 3c
       0.01855259 0.0030718737 0.010674927 0.009000651
000070 02 fc 10 3a c0 d5 41 3a 71 0e 55 3d e4 ef 23 3d
       0.0005530716 0.0007394217 0.052015726 0.0400237
000080 9b ef 1b 3b 4b f6 9a 38 9f 54 2b 3b 10 0c f8 3c
       0.002379394 7.389168e-05 0.0026142967 0.03027919
000090 1e 27 35 36 ee f4 31 3b 98 b0 eb 3d ed 02 07 3d
       2.699387e-06 0.0027154046 0.11508292 0.032961775
0000a0 ca fe 05 3c 85 5d 43 39 65 5c 39 3d 67 b4 97 39
       0.008178422 0.00018631488 0.04525413 0.00028935375
0000b0 65 9a b3 3b ee 4a 6b 39 d1 b6 15 38 fe 56 96 3c
       0.0054810517 0.0002243926 3.569463e-05 0.018352028
0000c0 5d 6c 8f 3c c6 91 83 37 00 5f 25 3e 70 93 bc 3c
       0.017507726 1.5684298e-05 0.16149521 0.023019522
0000d0 d3 71 94 3a c9 83 b1 39 86 0c fe 34 05 61 16 3c
       0.0011325426 0.00033858258 4.73203e-07 0.009178405
0000e0 17 e6 7d 3c ea 19 24 3b 8b 3c 11 3c ca 67 f2 3b
       0.015496752 0.002503986 0.008864532 0.0073976265
0000f0 6c 72 f0 39 d9 51 1f 3a 42 25 3b 3d e8 cd 0d 3d
       0.00045861618 0.0006077565 0.04568983 0.034620196
000100 ff 0b 70 bc 62 38 4e bd 4c 7d ca bc b1 a3 c8 3b
       -0.014651298 -0.05034674 -0.02471795 0.006123029
000110 a6 14 82 bb 91 eb 5b 3c 9c 7f 8f 3d a7 cd d0 bd
       -0.0039697466 0.013422863 0.070067614 -0.10195475
000120 1f e4 b8 b9 e4 85 17 3d d6 9d 99 3d d8 46 fd ba
       -0.00035265178 0.036992922 0.07500808 -0.0019323481
000130 3a 41 11 bb bd 7c db bb fe 07 a1 bb a4 05 c7 3d
       -0.0022164122 -0.0066982196 -0.004914283 0.09717873
000140 ea 95 39 3d f3 4d 97 3b 67 82 ae 3b 83 26 ff bc
       0.045308985 0.0046174466 0.0053256038 -0.031146294
000150 84 f9 63 bc 1c c6 6b b8 48 f5 8b 39 2f 86 34 3d
       -0.01391447 -5.621287e-05 0.00026694895 0.04407328
000160 08 f7 93 bc 5d a5 32 bd 4d 5a c0 3d a7 3c a7 3d
       -0.01806213 -0.043614734 0.093922235 0.081658654
000170 cd 41 5c bb 6f 0f e9 3b 63 da b2 3d a7 da 90 3d
       -0.0033608556 0.0071124355 0.0873306 0.070729546
000180 ab 97 3f 3b 64 4c be 38 60 14 4c 3b d3 04 12 3d
       0.0029234688 9.074135e-05 0.0031140074 0.035649132
000190 f2 da 62 36 ca 67 51 3b 2c 41 fd 3d 46 52 1f 3d
       3.3804067e-06 0.0031952732 0.12365946 0.03889682
0001a0 f2 6d 22 3c 90 cb 63 39 0c 4d 55 3d 19 1b d2 39
       0.009913908 0.0002172424 0.05207543 0.0004007451
0001b0 da 48 d6 3b aa 58 8d 39 db dc 4c 38 e9 41 dd 3c
       0.0065394463 0.00026959676 4.8843078e-05 0.027008967
0001c0 5b 84 b3 3c a9 3b a2 37 9a 47 29 3e de aa e8 3c
       0.021913698 1.9339686e-05 0.1653122 0.028401788
0001d0 7b 46 b9 3a 18 6d f3 39 a9 88 1b 35 20 06 3b 3c
       0.0014135385 0.00046429853 5.7940866e-07 0.0114150345
0001e0 1d 26 99 3c 76 b3 4b 3b e3 fd 30 3c bf 42 15 3c
       0.018694932 0.003108231 0.010802719 0.009110152
0001f0 05 a6 11 3a 1b 90 40 3a f6 75 5a 3d d7 13 28 3d
       0.000555605 0.0007345692 0.053335153 0.041034546

lstm.bias_hh_l0 f4 [128]
000000 63 5d 3d 3b 42 ee be 38 b1 82 4c 3b 26 78 10 3d
       0.0028894774 9.104285e-05 0.0031205828 0.035270832
000010 90 3b 7b 36 2c 64 56 3b 18 d7 f8 3d 14 6e 1f 3d
       3.7436585e-06 0.0032713516 0.12150401 0.038923338
000020 fe e1 20 3c 29 6b 64 39 11 e7 53 3d 26 bf b8 39
       0.009819506 0.00021783695 0.051734034 0.00035237632
000030 61 4a d5 3b 85 04 8f 39 d7 71 3e 38 47 9e bf 3c
       0.006509111 0.00027278453 4.540555e-05 0.023390902
000040 03 be ab 3c 86 c7 9d 37 56 95 24 3e 62 2d d8 3c
       0.020964628 1.8808769e-05 0.16072592 0.026388828
000050 0d f1 b7 3a b4 59 f6 39 7e db 1c 35 cc 08 35 3c
       0.0014033631 0.0004698761 5.843393e-07 0.011049461
000060 33 dd 97 3c eb 4a 48 3b 34 16 2f 3c 51 4e 12 3c
       0.018538093 0.0030562233 0.010686446 0.008929805
000070 c9 74 16 3a 99 83 41 3a b7 67 55 3d 6d 18 24 3d
       0.0005739448 0.00073819753 0.052100863 0.040062357
000080 a8 24 1c 3b d5 cd 9b 38 b7 bf 28 3b 67 e9 fb 3c
       0.002382556 7.429315e-05 0.0025749037 0.030750943
000090 75 c9 34 36 94 df 2f 3b 75 af ec 3d c9 02 07 3d
       2.6939354e-06 0.0026836144 0.11556903 0.03296164
0000a0 1c 8c 07 3c 94 01 3d 39 5f da 39 3d eb 05 a5 39
       0.008273151 0.00018025032 0.04537427 0.00031475662
0000b0 91 fb ae 3b 87 8d 6f 39 de 94 13 38 ad ac 9e 3c
       0.0053400476 0.00022845539 3.5186175e-05 0.019369448
0000c0 fe 90 91 3c e5 d5 81 37 39 66 25 3e 43 9e bf 3c
       0.017769333 1.54776e-05 0.16152276 0.023390895
0000d0 f2 c5 94 3a 1e bd a4 39 3a 22 02 35 3c e7 16 3c
       0.0011350496 0.0003142142 4.847858e-07 0.009210404
0000e0 08 2d 7e 3c ca f3 23 3b 59 2a 11 3c a6 70 f3 3b
       0.015513666 0.0025017136 0.008860194 0.0074292
0000f0 53 15 02 3a f5 17 1f 3a ea 26 3b 3d 43 62 0f 3d
       0.0004962284 0.00060689385 0.04569141 0.03500582
000100 11 c0 08 bd db 39 3c 3d cc 11 df 3a aa fe 2d 3c
       -0.033386294 0.045953613 0.0017018854 0.010619799
000110 38 37 8d bb c9 70 75 bc d0 29 53 3a 94 69 73 3b
       -0.004309561 -0.014980503 0.0008055242 0.0037141787
000120 bf b7 2c bd 02 14 9c bc bc 01 c5 bc 44 b5 e3 3a
       -0.04216742 -0.01905251 -0.024048679 0.0017372747
000130 10 a4 2e 3d 77 81 f1 bb 35 59 be bb 7c 0a 79 3d
       0.04263693 -0.0073701697 -0.005808974 0.060801014
000140 7b 3e 3e bc 86 e7 24 3b 63 f6 5a bd 87 bf 25 bd
       -0.011611576 0.0025162413 -0.05345763 -0.040465858
000150 81 60 78 bc ef 59 04 b7 f6 d6 0c 3a 86 17 89 3c
       -0.015159727 -7.888752e-06 0.0005372608 0.01673485
000160 62 d6 8f bc 14 98 55 bd 99 d1 3c bc 6b fc ee bb
       -0.01755828 -0.052146986 -0.011524581 -0.007293274
000170 34 45 b3 3b cf 2c 7e 3b c5 e2 8a bd 41 57 5d bd
       0.005470896 0.0038784032 -0.06781534 -0.05403829
000180 05 f5 3d 3b fc 1f bd 38 c8 a0 4d 3b 20 a7 14 3d
       0.0028985154 9.01818e-05 0.003137635 0.036292195
000190 bb 5f 66 36 ab f3 57 3b 76 43 fd 3d 1f 35 22 3d
       3.4328393e-06 0.0032951634 0.12366383 0.03960144
0001a0 d8 6d 22 3c 92 50 64 39 2e c1 56 3d f4 17 cd 39
       0.009913884 0.00021773789 0.052430324 0.00039118493
0001b0 fa 1b d5 3b a2 4b 8e 39 21 9e 3e 38 2c 02 af 3c
       0.006503579 0.000271407 4.54468e-05 0.02136334
0001c0 40 8b b2 3c b3 1a a1 37 58 cc 2a 3e c6 50 de 3c
       0.021794915 1.9205128e-05 0.16679513 0.027138125
0001d0 e4 0a b8 3a 73 69 c3 39 1f c0 1b 35 69 52 39 3c
       0.0014041332 0.00037271864 5.802157e-07 0.011311152
0001e0 dc 2f 99 3c e9 51 4c 3b f8 77 30 3c 3b bc 15 3c
       0.018699579 0.0031176752 0.01077079 0.009139116
0001f0 28 0f 21 3a 8f 75 40 3a 37 cb 57 3d ba df 27 3d
       0.0006143921 0.00073417363 0.052684035 0.040984847

fc.weight f4 [1, 37]
000000 44 05 a7 bd 81 aa 84 3c ab 4d a4 3d 86 53 6c be
       -0.08155301 0.016194584 0.080226265 -0.23078737
000010 af 7b 25 3b 19 6a 9f bd cd a6 c9 be ea cb 73 3e
       0.0025250723 -0.077839084 -0.3938507 0.23808256
000020 4c b6 10 be bf 77 c0 3c 1a fe 8b be 29 1b e6 3c
       -0.1413204 0.0234946 -0.27342302 0.028089123
000030 f5 fc d5 bd 12 7b f2 bc 4e 88 dc 3b b2 93 3f be
       -0.10448638 -0.0295997 0.006730116 -0.18708685
000040 26 4a 2f 3e 67 31 ad bb a1 cf e8 3e 95 c0 59 be
       0.17118129 -0.0052854302 0.45470908 -0.2126487
000050 88 26 54 3d 7d 3e ff bc 3f 8e 97 ba ab 7e 17 3e
       0.05179456 -0.031157726 -0.0011562778 0.14794414
000060 08 55 3a be 06 1b c2 3d 8c 7e 23 be 75 8c 08 be
       -0.181965 0.094778106 -0.15966243 -0.1333483
000070 b6 aa 0b bd 5c d0 25 3d c9 f9 93 be e4 72 7b be
       -0.03409835 0.04048191 -0.28901508 -0.24555546
000080 08 7e 94 3c 9e c3 88 3c a7 85 8f 3c 15 ea c8 3c
       0.018126503 0.01669484 0.017519785 0.024525682
000090 b4 d0 ff 3c
       0.031227447
